…
atter': 'simple', 'filename': 'hydra_train.log'}}, 'root': {'level': 'INFO', 'handlers': ['console', 'file']}, 'disable_existing_loggers': False}}
/home/ahmed/miniconda3/envs/frsq/lib/python3.9/site-packages/torch/nn/utils/weight_norm.py:30: UserWarning: torch.nn.utils.weight_norm is deprecated in favor of torch.nn.utils.parametrizations.weight_norm.
  warnings.warn("torch.nn.utils.weight_norm is deprecated in favor of torch.nn.utils.parametrizations.weight_norm.")
Wav2Vec2Model(
  (feature_extractor): ConvFeatureExtractionModel(
    (conv_layers): ModuleList(
      (0): Sequential(
        (0): Conv1d(1, 512, kernel_size=(10,), stride=(5,))
        (1): Dropout(p=0.0, inplace=False)
        (2): Sequential(
          (0): TransposeLast()
          (1): Fp32LayerNorm((512,), eps=1e-05, elementwise_affine=True)
          (2): TransposeLast()
        )
        (3): GELU(approximate='none')
      )
      (1-4): 4 x Sequential(
        (0): Conv1d(512, 512, kernel_size=(3,), stride=(2,))
        (1): Dropout(p=0.0, inplace=False)
        (2): Sequential(
          (0): TransposeLast()
          (1): Fp32LayerNorm((512,), eps=1e-05, elementwise_affine=True)
          (2): TransposeLast()
        )
        (3): GELU(approximate='none')
      )
      (5-6): 2 x Sequential(
        (0): Conv1d(512, 512, kernel_size=(2,), stride=(2,))
        (1): Dropout(p=0.0, inplace=False)
        (2): Sequential(
          (0): TransposeLast()
          (1): Fp32LayerNorm((512,), eps=1e-05, elementwise_affine=True)
          (2): TransposeLast()
        )
        (3): GELU(approximate='none')
      )
    )
  )
  (post_extract_proj): Linear(in_features=512, out_features=1024, bias=True)
  (dropout_input): Dropout(p=0.0, inplace=False)
  (dropout_features): Dropout(p=0.0, inplace=False)
  (quantizer): None
  (project_q): None
  (encoder): TransformerEncoder(
    (pos_conv): Sequential(
      (0): Conv1d(1024, 1024, kernel_size=(128,), stride=(1,), padding=(64,), groups=16)
      (1): SamePad()
      (2): GELU(approximate='none')
    )
    (layers): ModuleList(
      (0-23): 24 x TransformerSentenceEncoderLayer(
        (self_attn): MultiheadAttention(
          (dropout_module): FairseqDropout()
          (k_proj): Linear(in_features=1024, out_features=1024, bias=True)
          (v_proj): Linear(in_features=1024, out_features=1024, bias=True)
          (q_proj): Linear(in_features=1024, out_features=1024, bias=True)
          (out_proj): Linear(in_features=1024, out_features=1024, bias=True)
        )
        (dropout1): Dropout(p=0.0, inplace=False)
        (dropout2): Dropout(p=0.1, inplace=False)
        (dropout3): Dropout(p=0.0, inplace=False)
        (self_attn_layer_norm): LayerNorm((1024,), eps=1e-05, elementwise_affine=True)
        (fc1): Linear(in_features=1024, out_features=4096, bias=True)
        (fc2): Linear(in_features=4096, out_features=1024, bias=True)
        (final_layer_norm): LayerNorm((1024,), eps=1e-05, elementwise_affine=True)
      )
    )
    (layer_norm): LayerNorm((1024,), eps=1e-05, elementwise_affine=True)
  )
  (layer_norm): LayerNorm((512,), eps=1e-05, elementwise_affine=True)
  (final_proj): None
)
[2024-09-17 21:07:14,636][fairseq_cli.train][INFO] - Wav2VecCtc(
  (w2v_encoder): Wav2VecEncoder(
    (w2v_model): Wav2Vec2Model(
      (feature_extractor): ConvFeatureExtractionModel(
        (conv_layers): ModuleList(
          (0): Sequential(
            (0): Conv1d(1, 512, kernel_size=(10,), stride=(5,))
            (1): Dropout(p=0.0, inplace=False)
            (2): Sequential(
              (0): TransposeLast()
              (1): Fp32LayerNorm((512,), eps=1e-05, elementwise_affine=True)
              (2): TransposeLast()
            )
            (3): GELU(approximate='none')
          )
          (1-4): 4 x Sequential(
            (0): Conv1d(512, 512, kernel_size=(3,), stride=(2,))
            (1): Dropout(p=0.0, inplace=False)
            (2): Sequential(
              (0): TransposeLast()
              (1): Fp32LayerNorm((512,), eps=1e-05, elementwise_affine=True)
              (2): TransposeLast()
            )
            (3): GELU(approximate='none')
          )
          (5-6): 2 x Sequential(
            (0): Conv1d(512, 512, kernel_size=(2,), stride=(2,))
            (1): Dropout(p=0.0, inplace=False)
            (2): Sequential(
              (0): TransposeLast()
              (1): Fp32LayerNorm((512,), eps=1e-05, elementwise_affine=True)
              (2): TransposeLast()
            )
            (3): GELU(approximate='none')
          )
        )
      )
      (post_extract_proj): Linear(in_features=512, out_features=1024, bias=True)
      (dropout_input): Dropout(p=0.0, inplace=False)
      (dropout_features): Dropout(p=0.0, inplace=False)
      (quantizer): None
      (project_q): None
      (encoder): TransformerEncoder(
        (pos_conv): Sequential(
          (0): Conv1d(1024, 1024, kernel_size=(128,), stride=(1,), padding=(64,), groups=16)
          (1): SamePad()
          (2): GELU(approximate='none')
        )
        (layers): ModuleList(
          (0-23): 24 x TransformerSentenceEncoderLayer(
            (self_attn): MultiheadAttention(
              (dropout_module): FairseqDropout()
              (k_proj): Linear(in_features=1024, out_features=1024, bias=True)
              (v_proj): Linear(in_features=1024, out_features=1024, bias=True)
              (q_proj): Linear(in_features=1024, out_features=1024, bias=True)
              (out_proj): Linear(in_features=1024, out_features=1024, bias=True)
            )
            (dropout1): Dropout(p=0.0, inplace=False)
            (dropout2): Dropout(p=0.1, inplace=False)
            (dropout3): Dropout(p=0.0, inplace=False)
            (self_attn_layer_norm): LayerNorm((1024,), eps=1e-05, elementwise_affine=True)
            (fc1): Linear(in_features=1024, out_features=4096, bias=True)
            (fc2): Linear(in_features=4096, out_features=1024, bias=True)
            (final_layer_norm): LayerNorm((1024,), eps=1e-05, elementwise_affine=True)
          )
        )
        (layer_norm): LayerNorm((1024,), eps=1e-05, elementwise_affine=True)
      )
      (layer_norm): LayerNorm((512,), eps=1e-05, elementwise_affine=True)
      (final_proj): None
    )
    (final_dropout): Dropout(p=0.0, inplace=False)
    (proj): Linear(in_features=1024, out_features=47, bias=True)
  )
)
[2024-09-17 21:07:14,637][fairseq_cli.train][INFO] - task: AudioFinetuningTask
[2024-09-17 21:07:14,637][fairseq_cli.train][INFO] - model: Wav2VecCtc
[2024-09-17 21:07:14,637][fairseq_cli.train][INFO] - criterion: CtcCriterion
[2024-09-17 21:07:14,638][fairseq_cli.train][INFO] - num. shared model params: 315,486,895 (num. trained: 315,486,895)
[2024-09-17 21:07:14,639][fairseq_cli.train][INFO] - num. expert model params: 0 (num. trained: 0)
…
